Model
Model: "sequential"
________________________________________________________________________________
Layer (type)                        Output Shape                    Param #     
================================================================================
vgg16 (Model)                       (None, 9, 9, 512)               14714688    
________________________________________________________________________________
flatten (Flatten)                   (None, 41472)                   0           
________________________________________________________________________________
dense (Dense)                       (None, 400)                     16589200    
________________________________________________________________________________
dropout (Dropout)                   (None, 400)                     0           
________________________________________________________________________________
dense_1 (Dense)                     (None, 400)                     160400      
________________________________________________________________________________
dropout_1 (Dropout)                 (None, 400)                     0           
________________________________________________________________________________
dense_2 (Dense)                     (None, 2)                       802         
================================================================================
Total params: 31,465,090
Trainable params: 23,829,826
Non-trainable params: 7,635,264
________________________________________________________________________________


