Model
Model: "sequential"
________________________________________________________________________________
Layer (type)                        Output Shape                    Param #     
================================================================================
vgg16 (Model)                       (None, 6, 9, 512)               14714688    
________________________________________________________________________________
flatten (Flatten)                   (None, 27648)                   0           
________________________________________________________________________________
dense (Dense)                       (None, 200)                     5529800     
________________________________________________________________________________
dense_1 (Dense)                     (None, 200)                     40200       
________________________________________________________________________________
dense_2 (Dense)                     (None, 2)                       402         
================================================================================
Total params: 20,285,090
Trainable params: 5,570,402
Non-trainable params: 14,714,688
________________________________________________________________________________


