Model
Model: "sequential"
________________________________________________________________________________
Layer (type)                        Output Shape                    Param #     
================================================================================
vgg16 (Model)                       (None, 9, 9, 512)               14714688    
________________________________________________________________________________
flatten (Flatten)                   (None, 41472)                   0           
________________________________________________________________________________
dense (Dense)                       (None, 500)                     20736500    
________________________________________________________________________________
dropout (Dropout)                   (None, 500)                     0           
________________________________________________________________________________
dense_1 (Dense)                     (None, 500)                     250500      
________________________________________________________________________________
dropout_1 (Dropout)                 (None, 500)                     0           
________________________________________________________________________________
dense_2 (Dense)                     (None, 2)                       1002        
================================================================================
Total params: 35,702,690
Trainable params: 28,067,426
Non-trainable params: 7,635,264
________________________________________________________________________________


