Model
Model: "sequential"
________________________________________________________________________________
Layer (type)                        Output Shape                    Param #     
================================================================================
vgg16 (Model)                       (None, 6, 6, 512)               14714688    
________________________________________________________________________________
flatten (Flatten)                   (None, 18432)                   0           
________________________________________________________________________________
dense (Dense)                       (None, 200)                     3686600     
________________________________________________________________________________
dropout (Dropout)                   (None, 200)                     0           
________________________________________________________________________________
dense_1 (Dense)                     (None, 200)                     40200       
________________________________________________________________________________
dropout_1 (Dropout)                 (None, 200)                     0           
________________________________________________________________________________
dense_2 (Dense)                     (None, 2)                       402         
================================================================================
Total params: 18,441,890
Trainable params: 10,806,626
Non-trainable params: 7,635,264
________________________________________________________________________________


