Model
Model: "sequential"
________________________________________________________________________________
Layer (type)                        Output Shape                    Param #     
================================================================================
vgg16 (Model)                       (None, 6, 6, 512)               14714688    
________________________________________________________________________________
flatten (Flatten)                   (None, 18432)                   0           
________________________________________________________________________________
dense (Dense)                       (None, 600)                     11059800    
________________________________________________________________________________
dropout (Dropout)                   (None, 600)                     0           
________________________________________________________________________________
dense_1 (Dense)                     (None, 600)                     360600      
________________________________________________________________________________
dropout_1 (Dropout)                 (None, 600)                     0           
________________________________________________________________________________
dense_2 (Dense)                     (None, 2)                       1202        
================================================================================
Total params: 26,136,290
Trainable params: 18,501,026
Non-trainable params: 7,635,264
________________________________________________________________________________


