Model
Model: "sequential"
________________________________________________________________________________
Layer (type)                        Output Shape                    Param #     
================================================================================
vgg16 (Model)                       (None, 6, 6, 512)               14714688    
________________________________________________________________________________
flatten (Flatten)                   (None, 18432)                   0           
________________________________________________________________________________
dense (Dense)                       (None, 500)                     9216500     
________________________________________________________________________________
dropout (Dropout)                   (None, 500)                     0           
________________________________________________________________________________
dense_1 (Dense)                     (None, 500)                     250500      
________________________________________________________________________________
dropout_1 (Dropout)                 (None, 500)                     0           
________________________________________________________________________________
dense_2 (Dense)                     (None, 2)                       1002        
================================================================================
Total params: 24,182,690
Trainable params: 16,547,426
Non-trainable params: 7,635,264
________________________________________________________________________________


