Model
Model: "sequential"
________________________________________________________________________________
Layer (type)                        Output Shape                    Param #     
================================================================================
vgg16 (Model)                       (None, 6, 6, 512)               14714688    
________________________________________________________________________________
flatten (Flatten)                   (None, 18432)                   0           
________________________________________________________________________________
dense (Dense)                       (None, 300)                     5529900     
________________________________________________________________________________
dropout (Dropout)                   (None, 300)                     0           
________________________________________________________________________________
dense_1 (Dense)                     (None, 300)                     90300       
________________________________________________________________________________
dropout_1 (Dropout)                 (None, 300)                     0           
________________________________________________________________________________
dense_2 (Dense)                     (None, 2)                       602         
================================================================================
Total params: 20,335,490
Trainable params: 12,700,226
Non-trainable params: 7,635,264
________________________________________________________________________________


