Model
Model: "sequential"
________________________________________________________________________________
Layer (type)                        Output Shape                    Param #     
================================================================================
vgg16 (Model)                       (None, 9, 9, 512)               14714688    
________________________________________________________________________________
flatten (Flatten)                   (None, 41472)                   0           
________________________________________________________________________________
dense (Dense)                       (None, 200)                     8294600     
________________________________________________________________________________
dropout (Dropout)                   (None, 200)                     0           
________________________________________________________________________________
dense_1 (Dense)                     (None, 200)                     40200       
________________________________________________________________________________
dropout_1 (Dropout)                 (None, 200)                     0           
________________________________________________________________________________
dense_2 (Dense)                     (None, 2)                       402         
================================================================================
Total params: 23,049,890
Trainable params: 15,414,626
Non-trainable params: 7,635,264
________________________________________________________________________________


