Model
Model: "sequential"
________________________________________________________________________________
Layer (type)                        Output Shape                    Param #     
================================================================================
vgg16 (Model)                       (None, 9, 9, 512)               14714688    
________________________________________________________________________________
flatten (Flatten)                   (None, 41472)                   0           
________________________________________________________________________________
dense (Dense)                       (None, 300)                     12441900    
________________________________________________________________________________
dropout (Dropout)                   (None, 300)                     0           
________________________________________________________________________________
dense_1 (Dense)                     (None, 300)                     90300       
________________________________________________________________________________
dropout_1 (Dropout)                 (None, 300)                     0           
________________________________________________________________________________
dense_2 (Dense)                     (None, 2)                       602         
================================================================================
Total params: 27,247,490
Trainable params: 19,612,226
Non-trainable params: 7,635,264
________________________________________________________________________________


